jango_classifier.pt (torch, 248905 bytes, 10 tensors)

conv1.weight f4 [6, 3, 5, 5]
00000000: 9a0e a33d 8287 fe39 2b68 2fbd a228 893d
00000010: a78c 50bd 2243 833d a40c e33d 7140 b93d
00000020: d5c4 8b3d d7a9 283e d7a5 fe3d b9b6 d43d
00000030: 65ca b53d 72c4 773e 4d5a ad3c 1e07 b23c
00000040: 1b5e 5d3e 54ac ab3d e346 093d 6e49 93bb
00000050: 97ce dabb d5c3 1b3e 0276 0d3e 26ce 303e
00000060: 7c6d f53d 7c99 39bd f5da 9e3c a778 913d
00000070: 1766 593e e6d9 973d 6b15 f43d cabe 733d
00000080: 7d38 203e 85cb 983e 06c2 783e d1b0 dd3d
00000090: 3610 5a3e 5f98 7e3d 873e 2e3e 9516 443c
000000a0: b17f 6c3d ac31 e83c a686 c23d 34fd 343d
000000b0: 4d4c 3e3e 9df7 e4bd c431 e2bc ea3e 5e3e
000000c0: cf0d cd3d 9cdd 3f3e 0910 ba3d e92e b43d
000000d0: ca15 b83d 69ad 643e b37d 383e 4537 6b3e
000000e0: 69d1 4e3e a3a2 283e 06c2 ef3d cb8d 7d3e
000000f0: de53 483e c108 3c3e 46e9 973e 30d4 763e
00000100: 7bab f93d f4c6 583e df7d 1c3e 5fa9 203e
00000110: 60ba 5d3e e501 043e 0c2f 4a3e c62d 973d
00000120: 8b44 533e 0c23 883e 238b 513e af10 c73d
00000130: 9977 1a3e 40e9 1b3e 6d7b 713a 7454 ec3c
00000140: 290d d23d 07f7 7d3e f5ae 1f3e d106 ef3c
00000150: 5ead bdb9 e07f 8e3d e2fd 943d f21a ce3d
00000160: bf1b 953b 55eb 263e de5b 203e 9ace ed3d
00000170: 422f 163e 9957 2a3e 43bf 943d 7624 9d3d
00000180: 2ee7 c53c a7b3 d73d e4ec 393e ef52 903d
00000190: a74f 11be 75e2 b3bd ad07 a2bd 5173 a0bd
000001a0: f7da 9bbd f719 f1bd 7837 f6bd ea5c 80bd
000001b0: a684 cbbd 4308 0cbe cb2c 0dbe 1b26 f8bd
000001c0: bb7e a8bd c467 8abd 1979 ea3c 52c4 90bd
000001d0: 34d5 4abe 08a5 d4bd 3495 0abe 1ae0 0abd
000001e0: d327 36be 414a bbbb 7aff 52be 877e 0abe
000001f0: 9a02 363d 2337 d7bc cc66 45bd a54d 9b3d
00000200: 9367 0b3d 6457 103e 4e2a 323c a97e be3d
00000210: 41cc 96bd 5036 0a3d 2f47 9cbc 743a 00bc
00000220: 6368 193d aec2 093d 8c6c bc3c 7152 50bd
00000230: ad4d a1bd 6539 ea3d 59a4 d7bd 6376 a73d
00000240: e8fe d8bc f710 1f3e fda5 383d 860e 8b3d
00000250: ab42 8cbb ea8b da3d fb72 84bc 81ba 82bd
00000260: 0d18 53be dc33 39be 7d22 2dbe a4b9 603d
00000270: f34d fbbd f99f 60be 224e 2bbe 2603 0ebe
00000280: 9002 0f3d 8f6c ee3a f2f5 99be a6e5 83be
00000290: 1f03 2fbe 7579 c9bd 224f 5fbd 7795 54be
000002a0: 8ced 55bd d4cb 1fbe 4489 a83d f131 92bc
000002b0: 8eb5 6ebe ba14 0fbe 0eda c53d d8f4 a33d
000002c0: f1e3 27bd bdf6 30be 0f1a 8bbe d99a 03be
000002d0: ca6c 7a3d 0e32 cebb faff f5bd 9d78 6bbe
000002e0: f615 19be 7504 f8bd 655b 03bc ed54 bfbd
000002f0: c502 ddbd 2c62 a93d 72a5 a5bc 97ad b2bd
00000300: 6dd6 30be d1f6 9fbd 6845 1f3e f6e7 72bc
00000310: 6ac7 c5bd b339 67be dd09 de3a 0ced 2e3c
00000320: bdf7 353d c554 313e 83e6 813d d209 1bbd
00000330: 3146 6dbd 07fa cfbd 8d7f 9d3d ea91 33bd
00000340: 4a03 ee3d dc74 423d ca2f 0c3c 337f 883d
00000350: 73b6 39bd 749d b13c e685 2b3e e764 9a3d
00000360: d0f9 b0bd 9c00 c2bc e33e 0a3e 9887 3e3d
00000370: d007 283c cd7d 8bbd 7a40 e2bd ab6c dd3d
00000380: 02b1 633d 4622 ae3c a07c f63d 36e5 363e
00000390: 2dff b33d aded 2fbe 18e4 4d3e 9c2b 533d
000003a0: 7832 403e d2f1 133e 7c98 f13b a9e6 da3d
000003b0: 4841 433e 662f 093e 57f1 313e e030 213b
000003c0: 9fb1 0d3e 3617 373e 3a1d 1c3e 58b6 0a3e
000003d0: e923 13be 71b8 6f3d a2b1 4c3e 749e 303e
000003e0: 0373 d33b 9346 44bd 7eec a03b bf96 38bd
000003f0: b53b 9ebd e8d4 8dbe 1095 9fbe 719c 33be
0.079617694 0.00048547616 -0.04282395 0.06697203 -0.050915387 0.06409289 0.110863954 0.09045494
0.06824652 0.16471039 0.12433975 0.10386414 0.08876494 0.24196032 0.021161223 0.02173191
0.2161793 0.08382478 0.03351487 -0.0044948375 -0.0066774595 0.15211423 0.13814548 0.1726614
0.11983773 -0.04531239 0.019391516 0.07103091 0.2123035 0.07414608 0.11918148 0.059508123
0.15646549 0.29842773 0.24292764 0.10824741 0.21295246 0.06215703 0.1701604 0.011968275
0.057738964 0.028343998 0.094983384 0.044186786 0.18583794 -0.11180041 -0.02761162 0.21703687
0.100123994 0.18736881 0.0908509 0.0879801 0.08988531 0.22331776 0.180167 0.22970302
0.20197071 0.16468291 0.11706929 0.24761121 0.19563243 0.18362714 0.2967016 0.2410438
0.121909104 0.21169645 0.15282391 0.1568961 0.21653128 0.12891348 0.1974451 0.073817775
0.20631616 0.2658924 0.20463233 0.09719979 0.15084685 0.15225697 0.0009211812 0.028848864
0.10256416 0.24801265 0.15594085 0.029178055 -0.00036178058 0.06957984 0.07274987 0.10063733
0.0045504267 0.1630071 0.15660045 0.11611672 0.14666465 0.16634978 0.07263043 0.0767297
0.024158087 0.10532313 0.18156773 0.07047068 -0.14190541 -0.087834276 -0.0791162 -0.07834495
-0.076101236 -0.117725305 -0.120222986 -0.06267722 -0.0993741 -0.13675027 -0.13786618 -0.12116643
-0.08227297 -0.06758073 0.028622197 -0.07068695 -0.19807893 -0.1038304 -0.13533479 -0.033905126
-0.17788629 -0.005715639 -0.20605269 -0.13524829 0.044436075 -0.026271408 -0.048193738 0.07583169
0.034034323 0.14095837 0.010874344 0.09301502 -0.07363177 0.033743203 -0.019076912 -0.007826436
0.037453067 0.033632927 0.023000978 -0.050859872 -0.078761436 0.114367284 -0.10529394 0.08176877
-0.026488736 0.15533815 0.045080174 0.067898795 -0.0042804084 0.10671218 -0.016168108 -0.06383229
-0.20614643 -0.18086189 -0.16907687 0.05486454 -0.12270727 -0.21936025 -0.16729024 -0.13868389
0.034914553 0.0018190312 -0.30070454 -0.25761145 -0.17091034 -0.09837619 -0.054518826 -0.20760141
-0.052228495 -0.15605098 0.08229306 -0.01784608 -0.23311445 -0.1397275 0.09660731 0.080056846
-0.040988866 -0.17281623 -0.2716832 -0.12852038 0.061138906 -0.006292588 -0.12011714 -0.22995229
-0.14949784 -0.12110225 -0.008017396 -0.0934237 -0.10791544 0.08270678 -0.020220492 -0.08724516
-0.17269297 -0.07810748 0.1555382 -0.014825812 -0.09657176 -0.22580604 0.0016940195 0.010676634
0.044425715 0.17317493 0.06342795 -0.037851162 -0.057928268 -0.10155111 0.07690344 -0.043840326
0.11621721 0.047474727 0.008556316 0.06664886 -0.045340013 0.021681525 0.16750297 0.07538777
-0.08641398 -0.023681931 0.13500552 0.04651603 0.010255769 -0.06811104 -0.11047454 0.108117424
0.05558873 0.021256577 0.12035489 0.17860875 0.08788905 -0.1718051 0.20106542 0.05155526
0.18769252 0.14447716 0.007372914 0.10688526 0.19067872 0.13396987 0.1737722 0.0024595782
0.13837288 0.17879948 0.15245524 0.13546121 -0.14369167 0.058525506 0.19989637 0.17247945
0.0064529194 -0.047918867 0.0049110046 -0.045065638 -0.07726232 -0.27701497 -0.31168413 -0.17540146

conv1.bias f4 [6]
00000000: 8706 61be c440 a1be 36f9 1bbe e1f1 70be
00000010: 8001 1cbe 1efc 3ebe
-0.21975146 -0.31494725 -0.15231785 -0.2352977 -0.15234947 -0.18650863

conv2.weight f4 [16, 6, 5, 5]
00000000: 09a1 53bd 23d1 e7bd fd2b 09be 770b ffbd
00000010: bbff cabd 9bfc 11be e3d3 66bc d801 c5bd
00000020: c22c 20be 6b36 0abe 7d41 dcbd de2e 33bd
00000030: 89b1 eebd 37de 12bd 27c3 4fbd fe30 90bd
00000040: 6a06 02be 1136 b8bd d210 58bd 34ad 9ebd
00000050: a0ae 9dbd 54c9 d0bd 2793 66bd ea83 5abd
00000060: 848a 1abd 0b9b 1abb 2a7b 51bd ec51 a1bd
00000070: f468 a33d 7fae 333c 9481 9c3c 9b1a 37bd
00000080: 097d 3dbb 22a3 78bd d00f 5ebd 2893 83bd
00000090: ff10 4dbc 50b9 48bc 0f2d 2c3d 811b fd3c
000000a0: 808f 5cbc db86 383c 4710 0b3c 4a90 aebd
000000b0: 4d8e 76bc 5f9b 01bd 813a d0bd 9354 053c
000000c0: e82e e1bc e5e5 4dbd 3d7e b5bd dd38 8abd
000000d0: 5e33 1dbe c409 82bc ed4d 83bd 9c06 00bd
000000e0: f191 c3bd b86a 72bc 29ec 88bd f602 7d3c
000000f0: 2734 1abd 31fd debd 9006 12bd 56ae bdbd
00000100: 2dfe dfbd 47d8 a0bc 810c a8bd a5b5 68bd
00000110: 813a 64bd 960e bdbd b1e8 76bd 6b33 9dbd
00000120: f8f8 02be f5a8 a0bd bdc2 c7bd 3122 65bd
00000130: e2e6 a5bc 3715 6bbd 18b3 4bbd 133e 95bd
00000140: 9de4 b9bd 152c 5a3c fc90 ef3c 4e2a e5bb
00000150: 2170 eebd 9fad cabd b74d 84bb 5cb2 603d
00000160: 8a17 94bb 13d9 bc3c 73a7 b9bd 75d2 51bd
00000170: cb75 46bd 298b f0bc f82a cfbd 786d e5bd
00000180: 24cb abbd bafc 52bd 3559 ebbd 405b 36bc
00000190: fc74 a2bd 34e7 0abc 9467 a73b 6e52 86bd
000001a0: ce4e 08bc e410 2e3d 69a9 82bd e40d 333d
000001b0: afb9 c5bd aa09 bebc 92c1 cbbd d009 10bd
000001c0: 0141 e43c 5924 123b a10d c23c 9662 27bc
000001d0: 755d c2bd 0888 88bd 645e a23c efc7 f9bd
000001e0: 7a2e 063b d245 febc 1658 04be 2cc1 bbba
000001f0: ff82 2b3d 3706 353a 79f6 b1bd c5d7 db3c
00000200: 19c9 863c a26d 4c3c edff 4fbd 305a d8bd
00000210: 2a79 01bd 5851 a33c d0a1 35bd d702 d1bc
00000220: 45be a93d 1773 263d 8624 1a3d 413d dbbd
00000230: a51e 3abd 8165 05bc ee96 4fbd 5ecc 353d
00000240: af90 bebd 83a1 93bd 0af7 94bd 1f5a 4cbd
00000250: 2357 e2bd 51df 883c 1764 723d 6d8c a53d
00000260: 3d2a 683d ae88 13bd a242 0b3c 0af6 f5bc
00000270: 012c b4bd a8e9 e1bd dd48 49be 8f41 8ebd
00000280: 2903 4bbe b6fa 97bd 10a3 bfbc d875 b5bd
00000290: 2408 863b 715d 95bd cced c9bd 854a 13be
000002a0: 3851 94be e025 37bd a525 303e de4e 01bc
000002b0: 8476 88bd fd73 b0bd fbce 0bbe b41f c9bd
000002c0: 65ed 5ebd 7f73 d6bd 322e 61be c384 bebe
000002d0: 462f 40bc ee15 28bb 27fb 4ebe 52b7 8bbe
000002e0: 04da 9ebe 73d9 b2bd 7abb d5bd df7e 0bbe
000002f0: d20e 75be 1aca 56be 898a 8abd 4c08 a7bc
00000300: eeea 62bb 4758 4fbe f562 4fbe d9b4 27be
00000310: 0136 f9bc c91c 93be e2d2 23be 8a5c 09be
00000320: fc7d 0a3e edb7 05be 3a65 42bd 26bb 0f3d
00000330: 7471 1e3c c84e c33c 787b 1dbe fa5c f4bd
00000340: caaa 2ebe 05eb 64be 0e0b a6bd 2fd0 d7bd
00000350: 248e 62be da3d 0bbd f56a 87bd 5121 48be
00000360: f211 04bd cd64 a0bc 1ee3 bb3d f272 173e
00000370: 12bb 25bd 5104 2bbd d901 5d3c b838 463e
00000380: 105a 573e 0ded 703d 7d81 fc3c c203 e3bd
00000390: 58bf 37be fa28 b2be f772 c33d 99ea 80bd
000003a0: 6944 babe 4939 22be f090 a1be 3c01 39bd
000003b0: 36c9 99be dcec 54be 71a6 dcbd cf10 59be
000003c0: ae5d 39be 6279 8dbe 35dc 453c 2dee 923e
000003d0: b8a8 1ebd 51cf 38be e0ab bcbd e6f7 203d
000003e0: 8d54 193e 696f 763e 1d22 833e 44bb 243e
000003f0: 955a 663d 37f8 1d3c 91f3 6c3c 4e36 b53a
-0.051667247 -0.113191865 -0.13395686 -0.124533586 -0.09912058 -0.14256518 -0.014088604 -0.09619492
-0.15642074 -0.13497321 -0.107546784 -0.043745868 -0.11654956 -0.03585645 -0.05072322 -0.070405945
-0.1269776 -0.08994687 -0.052750416 -0.077478796 -0.07699323 -0.1019465 -0.05629268 -0.05334846
-0.037729755 -0.0023590948 -0.05114285 -0.078769535 0.079790026 0.010966896 0.019104756 -0.044703107
-0.0028913638 -0.06070245 -0.0542143 -0.06424552 -0.012516259 -0.012251213 0.04203516 0.030896904
-0.013461947 0.011262621 0.008487768 -0.08523615 -0.015048576 -0.031642314 -0.10167409 0.00813784
-0.027488187 -0.050268073 -0.08861969 -0.06749127 -0.15351626 -0.015873797 -0.064113475 -0.031256303
-0.095493205 -0.014795952 -0.06685669 0.0154426005 -0.037647393 -0.10888136 -0.03565079 -0.092617676
-0.10937152 -0.01963438 -0.0820551 -0.056813855 -0.055719856 -0.09231298 -0.060280506 -0.07675823
-0.12790287 -0.07844726 -0.0975394 -0.05594081 -0.020251695 -0.05739328 -0.049731344 -0.0728723
-0.09076808 0.013316174 0.029243939 -0.0069935685 -0.11642481 -0.09896397 -0.0040375846 0.054857597
-0.0045194076 0.023052728 -0.090651415 -0.051226098 -0.04845218 -0.029363232 -0.101156175 -0.1120252
-0.083883554 -0.05151055 -0.11491624 -0.011130154 -0.07932469 -0.008477975 0.005108783 -0.06558691
-0.00831957 0.042496577 -0.06379969 0.04371442 -0.09654557 -0.023197968 -0.0994903 -0.035165608
0.027863028 0.0022299497 0.02368814 -0.010216376 -0.09490482 -0.06666571 0.0198204 -0.121963374
0.002047448 -0.031039152 -0.12924227 -0.0014324537 0.041872974 0.0006905528 -0.08689589 0.026836285
0.016453313 0.01247731 -0.05078118 -0.10564077 -0.03160969 0.019936249 -0.04434377 -0.02551405
0.08288244 0.040637102 0.037632488 -0.10705043 -0.04543938 -0.008141876 -0.050681047 0.044384353
-0.0930494 -0.0720854 -0.072736815 -0.049890634 -0.11051776 0.016708048 0.059177484 0.08083425
0.056680907 -0.03601902 0.008499773 -0.030024547 -0.087974556 -0.110308945 -0.19656701 -0.06946098
-0.19825424 -0.07420866 -0.023393184 -0.088603675 0.004090326 -0.07293213 -0.09859809 -0.14383896
-0.28968215 -0.044713855 0.1720186 -0.007892339 -0.0666323 -0.08615873 -0.13653176 -0.098205
-0.054425616 -0.10471248 -0.21990278 -0.37210664 -0.011730021 -0.0025647837 -0.20212995 -0.272883
-0.31025708 -0.087328814 -0.10436149 -0.13622616 -0.23931435 -0.20975533 -0.06764705 -0.020389698
-0.0034624892 -0.20248519 -0.20252593 -0.16377582 -0.030421259 -0.287329 -0.15998414 -0.13414207
0.13524622 -0.13058443 -0.04745982 0.035090588 0.009670604 0.023841277 -0.15379131 -0.11931796
-0.17057338 -0.22355278 -0.08107577 -0.10537755 -0.22124535 -0.033994533 -0.06612197 -0.19543959
-0.032243676 -0.019579316 0.091741785 0.14789942 -0.040461607 -0.041752163 0.01348921 0.19357574
0.2103045 0.05881982 0.030823464 -0.11084701 -0.17944086 -0.34796888 0.09543412 -0.06294746
-0.36380318 -0.15842165 -0.3155589 -0.045167193 -0.30036324 -0.2079348 -0.10773934 -0.21197818
-0.18102142 -0.2763167 0.012076427 0.2869734 -0.03873512 -0.18047835 -0.0921247 0.039298914
0.1497366 0.24065937 0.25611964 0.16087061 0.05623873 0.009641699 0.014462368 0.0013825388

conv2.bias f4 [16]
00000000: 3d1c b8bd 2ffd e03d 8682 eabd 9149 103c
00000010: d99d 403e 6ad9 58bd 0667 803d 29a4 9fbd
00000020: 7c2d bc3b 7651 963e 0cea f0bd fdf5 db3d
00000030: bfb0 27bd 2a54 bdbd 6007 38be cf4d 773c
-0.08989761 0.10985791 -0.114506766 0.008806602 0.18810214 -0.052941717 0.0626965 -0.07794983
0.005742727 0.29359025 -0.11763391 0.10740278 -0.040940043 -0.09244569 -0.17971563 0.015094235

fullyconnected1.weight f4 [120, 400]
00000000: f970 0e3d 2f1e 2fbd 1dd1 39bd a645 9cbc
00000010: f754 aebd 9aae 153d 9779 413c 2b43 56bb
00000020: abfc 9db9 04eb 0ebc 703f 15bd e898 183d
00000030: 3d98 5cbd 894b 853b 93a3 a63c d5a8 d53c
00000040: 7cea 403c dd9e bd3c 1db4 57bd 9838 9abd
00000050: 65fd aebd 2bc8 1abd 45be d43b c1bf 10bd
00000060: de2e 3abc 7e89 e9bd 8fc6 9ebc 5767 523d
00000070: 0dee 55bc 8da8 2f3e 9637 21be 7279 8b3e
00000080: a899 a93e 19a3 143e 716b 2ebc 24a7 093e
00000090: 1b24 e73d 2374 f13d 9c65 5f3d 4fbc 033e
000000a0: 2d33 7fbc 85a5 b1bd 0957 8fbd 7300 1bbc
000000b0: 9a74 253e d24a 073e 89ee d0bd c2e7 bf3e
000000c0: acf9 973e 11dd fc3d f400 363c a756 bc3c
000000d0: cbb3 b5bc f3f9 50bc 3b5e 38bc 6e3a 183c
000000e0: 98b1 523c 1d2f ebbc 540e 0b3d a77b 88ba
000000f0: 7ed4 e8b9 e4e7 63bd f3e8 133d ea3e b9ba
00000100: 7c7c e53b 53be c0bc e2c8 71bd 9394 8dbc
00000110: 72be 4b3c 67d1 6f3b 76fe 0e3d f732 0cbd
00000120: 65da 88bc c204 a93b c09f 043b 975e 9a3b
00000130: 0d4e 88bd 517a f93b 4d6a 7c3d df61 4d3d
00000140: 0775 92be 1cc6 efbd fcdb 1d3d d083 f5bc
00000150: 8f97 0bbd f72b 14be f4e4 54bc 6fce 0bbd
00000160: 7efe 11be 4be2 ce3d 3e94 fabd 9fa6 07be
00000170: 2dc2 83be 8268 7c3d f74b 14be f17e 01bd
00000180: f386 bcbe d429 5ebe d2af 793e 3219 563e
00000190: 9ded 8c3e 72cc 1abe 6b6e c53d 2c21 e13d
000001a0: b186 ff3d 6923 a13d 126b 013d ceb7 583d
000001b0: 6f44 d43d 8373 b2bd ed5b 9bbc f41d a03d
000001c0: c367 0f3e e7d7 3a3d 6547 03bc d746 773d
000001d0: 17eb 2cbd 1dfa 423e f96e 3abe 69ca cc3d
000001e0: 5e66 83bd 20b1 80bd 1d8d 2a3e 92e5 c93d
000001f0: f7ec 45bd 1d8d 043c b5d6 193d b827 1b3d
00000200: 7a50 9f3c f3e1 863c 68e5 533d 969f 8c3d
00000210: 2599 0b3d 7ae1 5fbd 6b39 fc3c d5c3 47bc
00000220: c1e0 943d bfd7 3c3d 4257 223c cd9e af3d
00000230: c4b2 863d 5f0e afbc c144 313d 148c c53c
00000240: b894 8a3d 0902 2fbd e536 523d a908 80ba
00000250: 2bdb 2fbd de09 16bc d4b4 31bd 85d2 033d
00000260: b813 11bd 9bef bbbd 2ad4 85bb e364 023e
00000270: 0144 053e f506 14be 54c5 873d 9145 66bc
00000280: 6d68 9f3e e11c 753e 4352 3d3e 7a9c 9ebd
00000290: ecb5 e63c b5fe 223e 9ad0 983e 5b38 3a3e
000002a0: 38d8 533e 34c9 013e 8d26 09bd bb73 ae3d
000002b0: b90c 223d 7962 043d 0ff0 503c 9a14 733c
000002c0: 7ea5 963d f2d3 96bd 9c89 40bc 1d97 12be
000002d0: ed77 09be d736 23be c96f 453d 3fae d8bd
000002e0: f16e 33bc b580 35be 617b 5bbe 7e21 b73c
000002f0: 42cc ddbc 3d00 263d f116 b73c fe98 d9bd
00000300: 6d4c d23c 2c0e 5a3c 27e8 05be e223 823d
00000310: bf99 77bd 4c6f a1bd 3189 a5bd dcc3 81bd
00000320: 0d01 013d d99e 4c3e a6b2 7bbd 2c2d e8bc
00000330: 1d21 9b3e 0511 57be b866 57be 5bd9 9cbd
00000340: 254c c2bc 3706 d63d d044 413e 9f0f fd3c
00000350: 68d6 1e3e 27c4 c03c 10ca acbd fbdb 713c
00000360: 8d02 31bd 7347 84be 17ca 90be 8685 fa3c
00000370: 8ef1 03bc d3b1 b9bd 8957 fbbb 54dc 083e
00000380: dbd1 e9bc e787 9fbd a2b9 0dbe dc41 1bbd
00000390: 6f04 513d 7a89 e53d 9905 aabd 2159 3f3a
000003a0: b8e0 ed3d bb94 973d 340f 913d 180c e0bd
000003b0: 9036 2d3d e8ac 373e 6af7 96bc 87c7 44bd
000003c0: 2017 d7bd a78e 993b a877 9ebd 70aa 32bc
000003d0: 713a 963c 1baa 39be dbd3 8bbe 8d74 323d
000003e0: 6e29 6e3e 68cc 9abd 72f4 0bbd dd75 8cbc
000003f0: 238d 1cbd ac10 e43c 2279 0dbd 16b5 563c
0.034775708 -0.042753395 -0.04536544 -0.01907618 -0.085122995 0.036543466 0.011808774 -0.0032693844
-0.00030133626 -0.008723024 -0.03643745 0.037255198 -0.053856123 0.0040678424 0.02034167 0.026081482
0.011774655 0.023147041 -0.052662004 -0.07530326 -0.08544425 -0.03778855 0.0064924085 -0.03533912
-0.011363713 -0.11403178 -0.01938179 0.051368084 -0.013057244 0.17154141 -0.1574386 0.27241093
0.33125043 0.14515342 -0.010645733 0.13442665 0.112861834 0.117897294 0.05454026 0.12864803
-0.015576166 -0.086741485 -0.069990225 -0.009460556 0.16157761 0.13212135 -0.10201747 0.37481505
0.29682672 0.123468526 0.011108626 0.022990538 -0.022180459 -0.012754905 -0.011252935 0.0092912745
0.012859724 -0.028708989 0.03394921 -0.0010412828 -0.00044408807 -0.05564107 0.03611083 -0.001413313
0.007003365 -0.023528254 -0.059029467 -0.01728276 0.012435542 0.003659332 0.03491064 -0.03422829
-0.016705701 0.005158038 0.002023682 0.004710983 -0.06655512 0.007613458 0.061624814 0.050142165
-0.2860491 -0.11707708 0.03853987 -0.02997008 -0.034080084 -0.14469896 -0.01299404 -0.034132417
-0.14257237 0.10101756 -0.12235306 -0.13247155 -0.25734082 0.061623104 -0.14482103 -0.0316152
-0.36821708 -0.21695644 0.24383476 0.20908049 0.27525035 -0.15117052 0.09640201 0.10992655
0.12476862 0.07868082 0.03159625 0.052909665 0.10364615 -0.08713438 -0.018964732 0.07818213
0.14004426 0.045616057 -0.008012627 0.060370293 -0.042216387 0.19040723 -0.18206395 0.09999544
-0.06416009 -0.06283784 0.16655393 0.0985824 -0.04832169 0.008090285 0.037558276 0.037879676
0.019447554 0.016465163 0.05173245 0.06866376 0.034081597 -0.05465839 0.030789098 -0.012192686
0.07269431 0.04610419 0.009908499 0.08575211 0.065770656 -0.021369157 0.04327846 0.024114646
0.06766647 -0.04272655 0.051321883 -0.0009768206 -0.042933624 -0.009157626 -0.04338534 0.03218319
-0.035419196 -0.091765605 -0.00408413 0.12733798 0.13014223 -0.14455779 0.06629434 -0.014054672
0.31134358 0.23936798 0.18488412 -0.07744689 0.028162919 0.15917476 0.2984665 0.1818556
0.2068795 0.12674409 -0.03348403 0.085181676 0.039562915 0.032320473 0.012752547 0.014836455
0.07355784 -0.07364644 -0.011751559 -0.14315458 -0.13424654 -0.15938888 0.04820231 -0.1058011
-0.010951743 -0.17724879 -0.21433784 0.022354838 -0.027074937 0.04052757 0.022349807 -0.10624884
0.025671208 0.013309043 -0.1307684 0.063545 -0.060449358 -0.07882556 -0.08082808 -0.06336185
0.031495143 0.1998247 -0.06144967 -0.028341852 0.302987 -0.21002586 -0.21035278 -0.07658645
-0.02371795 0.10450404 0.18873906 0.030891238 0.15511477 0.023531033 -0.08436978 0.01476192
-0.043215323 -0.2583576 -0.28279182 0.030581247 -0.008053197 -0.090671204 -0.007670347 0.13365299
-0.02854245 -0.07789593 -0.13840345 -0.037904605 0.05102962 0.11207862 -0.08301849 0.0007299353
0.11615127 0.07401415 0.07082978 -0.10939807 0.042288363 0.17937052 -0.018428523 -0.048041847
-0.105024576 0.004686195 -0.07737666 -0.010904893 0.018338414 -0.18131296 -0.2731007 0.043568183
0.23257992 -0.07558519 -0.034168668 -0.017146045 -0.038220536 0.027839981 -0.03453935 0.013104698

fullyconnected1.bias f4 [120]
00000000: e487 1ebe 44c9 2fbe fc25 39be 7f02 babe
00000010: e0cc 61bc f929 cabe 1479 c2be 8dab 8cbe
00000020: bd5b a9be b791 3d3e 12f3 4dbe 5949 55bb
00000030: 0e18 67bd 3ba9 d0be e448 c4be f026 b9bc
00000040: 7971 973a 8140 ecbd 9b81 54be 715c 34bb
00000050: 6732 5cbb ec03 9cbe 4f27 d0be a449 babe
00000060: 753e d0be 8c6d 52be eda5 78be 86ed 1bbe
00000070: 68b9 c7bd fbe3 7cbe 5018 b4be c308 c1be
00000080: b531 38be 6a8e e1be 98c5 fabd 6900 b9be
00000090: 620c a2be f35e a3bb 91e8 83be 2828 233e
000000a0: df8c 55be 064c c7be 2f2f aabe 92b6 6abe
000000b0: 1aed 74be 4e82 d33a 7957 eabc 23a3 49be
000000c0: 738a 9bbe 54e8 9ebe cf9c a4bd 65c9 b0be
000000d0: bd92 66be 9d6b ef3b 1a55 86be b8bf e5bd
000000e0: 6c02 8cbd 3694 b4be a8c6 97bd 44ae d8bd
000000f0: 39c6 7dbd 9060 8abe e933 00be 6bf5 06be
00000100: 39c3 0bbe 4681 7abe cc42 97be c3ee d3be
00000110: 7a52 b1be 9aa6 92bb e74c 593c ce80 b1be
00000120: 700a 77be ae06 8dbe 67df 94bc dc3f 0a3b
00000130: 6fcb 44be f502 29be 0f26 5cbc f35d b33d
00000140: 8fce 44be 77bc 59bd 4d05 ffbd 9d90 3fbe
00000150: 272b ebbc c717 7dbe 35e4 c4be b787 67bc
00000160: 7d7f aebe 59e6 00bc 1fbf 04be 4d82 82be
00000170: bc5d aebe 3342 903c 1f87 70bd 3b21 b53c
00000180: 7088 c5be ff17 95be 830d 69be 79f1 9bbe
00000190: 556c 18be f2c9 43bd 7ba2 17be c4c8 7fbe
000001a0: 4954 8ebe 7eb3 86bd fc26 37be 3c97 31bb
000001b0: 331f 8bbe b604 a53b b5ce a9be 1af9 afbd
000001c0: 9f26 583d ea8c d8bd cc4b 36be edea dabd
000001d0: 1236 61be c7da 4fbe 057d a7be 3d3f da3c
-0.15481526 -0.1716662 -0.18080896 -0.3633003 -0.013781756 -0.39485148 -0.37983 -0.27474633
-0.33077803 0.18512617 -0.20112255 -0.003254494 -0.056419425 -0.40754113 -0.3833686 -0.022601575
0.0011554203 -0.11535741 -0.20752566 -0.002752092 -0.0033599378 -0.30471742 -0.4065499 -0.36384308
-0.4067265 -0.20549601 -0.24282046 -0.15227327 -0.0975216 -0.24696343 -0.351748 -0.37701997
-0.17987712 -0.44053966 -0.12244719 -0.36133125 -0.31650072 -0.004985684 -0.25763372 0.15933287
-0.2085452 -0.3892519 -0.33239123 -0.22921208 -0.23918572 0.0016136856 -0.028606163 -0.19691138
-0.30379066 -0.31036627 -0.08037721 -0.34528652 -0.22516914 0.0073065297 -0.26236802 -0.11218208
-0.068363994 -0.35269326 -0.074109375 -0.105801135 -0.061956618 -0.27026796 -0.12519802 -0.13179557
-0.1364869 -0.24463376 -0.2954315 -0.41393098 -0.34633237 -0.004475427 0.013262964 -0.34668583
-0.24125075 -0.2754416 -0.018172933 0.0021095192 -0.19218229 -0.16505034 -0.013436808 0.08758154
-0.19219421 -0.05315825 -0.12452183 -0.1870751 -0.0287071 -0.24716102 -0.38455358 -0.014131478
-0.3408164 -0.007867419 -0.12963532 -0.25490037 -0.3405589 0.017609691 -0.05872261 0.022110572
-0.38580656 -0.2911987 -0.2275906 -0.30457667 -0.14885075 -0.047800012 -0.14808075 -0.2497893
-0.2779868 -0.06577204 -0.17885965 -0.00270982 -0.2717224 0.005035962 -0.33165517 -0.08592434
0.052771207 -0.10573752 -0.17802352 -0.1068934 -0.21993282 -0.202983 -0.3271257 0.026641482

fullyconnected2.weight f4 [84, 120]
00000000: 0a91 913d 6a6b aebc c493 6ebc 0bed 9abd
00000010: 6239 95bd 730f e53b 87c3 a0bd 997f 26bd
00000020: 24e1 b4bc 2239 5e3d 13e8 b8bd 118c e1bc
00000030: ca25 c5bd 7aca 863d 84a6 933b 357f 7dbd
00000040: dc76 78bd e17f 9ebd e285 5b3d f802 e03c
00000050: 8d3e ceba 6a51 02bb 34f3 abbd 8894 afbd
00000060: d112 82bc 988a ccbc 478b d23c 1310 433d
00000070: 8e17 8cbd 1e9f 1cbd 2c0d d7bd 3257 423c
00000080: 8949 9cbc 1559 13bd 380d 54bc 55a8 903d
00000090: e101 2f3d 272a a43d e751 ea3c 96ba 92bd
000000a0: 80db 4cbd ad7e a0bd 7da6 94bd 2a78 e63b
000000b0: 3cf4 8a3d 4079 73bd 0531 e2bd 92f0 27ba
000000c0: b83b 94bd 08b5 8cbd a826 e63c 9a4c ecbb
000000d0: 30da 25be 9138 d3bd ba32 f5bc 5410 87bc
000000e0: 6cb3 c4b9 66c7 db3c ea01 89bc 893a b3bd
000000f0: 19e5 11bb 69b7 a8bd 3a53 7dbd 9488 b4bd
00000100: 819d 6f3c b329 bebc f6bf 853b 7f48 9bbd
00000110: 8bd4 cabb 6502 76bd e52d 11bd 3e3b 86bd
00000120: e5a4 6fbd 710d b3bd fe10 cebd d959 a73d
00000130: fadb b33c 03bf c3bd 60a3 4b3d 139a b53c
00000140: 2997 613d e377 8ebd b62b c1bd 5d3d ee3c
00000150: cbd9 3c3d 8fe2 713c 3556 77ba 96d0 e0bc
00000160: 6a68 b6bc fb5c 9cbd 8e83 30bd 82df acbd
00000170: 93a3 ec3a 5817 cfbd fa95 92bc ec2d 8abc
00000180: 5174 193d 0bc4 e83c 5df7 d3bd d4f0 49bd
00000190: 9b4b 06bd 71c9 88bc 857d 063c 63b1 a2bd
000001a0: ee9a b9ba 1598 b5bd c122 a3bc c370 3f3d
000001b0: 1519 d6bd 6883 d73c 74ff e93c 9ab5 84bd
000001c0: fa13 9cbd 4368 db3b 9e17 683c 51f5 92bd
000001d0: ae6e 36bd 5225 01bd 765a 823c 462d 193d
000001e0: a0ae 1ebd 3997 ffbd d83a 94bd f414 49be
000001f0: 589c 9ebd 2289 50be bd24 24be 6c92 d7bd
00000200: 26db 8ebd 5232 71be 4cfc 06be 6924 7abd
00000210: 5f4b 8ebe c549 3cbd b547 78bb 2196 febb
00000220: fc1f 5f3e 6d4c 22be 23c4 02bd d6f3 733e
00000230: 8aaa e23c d7a4 953c a659 f4bc ba59 153e
00000240: f2c9 17be f1ff ddbd 0746 bcbd 5e96 ce3d
00000250: 5269 113e 69df a4bd 550e cfbc 6e1a 2abe
00000260: d03a 913d 011a 833d e942 2dbd 2f40 0f3d
00000270: 7a19 bebd 8e5d 503e 68ab 52bd ea7e 7cbd
00000280: a78c 4ebe d5a2 7cbd ce96 2dbe 79de a2bd
00000290: a66a 523d 5140 3a3e 197f cf3d decb 3fbe
000002a0: 4d26 75bd c0f8 3c3c ad43 1abe e32d 16bd
000002b0: bb28 8e3d 01a4 393c 9505 c03d 8ac6 b5bd
000002c0: df55 3d3d a05d 0cb9 978c a33d 652f 98bd
000002d0: 179d 92bc 69e1 12be c932 67bd 674d 32be
000002e0: 4789 273d 4447 83bd cdfd 123b 2d46 3cbd
000002f0: f7b3 64be e62e cd3c d3f2 903d 449e 3cbe
00000300: 62a4 35bb bc5b 36be bc94 ae3d 18fc 953e
00000310: 207f 89be df8b 963d efd5 483d 8a1e e7bd
00000320: 904d 54be 209a 9dbd c161 cdbc 589d 4abe
00000330: 57e9 3bbe 0ec3 6cbd d859 92be 2aa4 4ebe
00000340: fd45 e63b b58a 983e 83bf e73d 7d84 163e
00000350: 2c9d 6dbc 63f3 ee3d 1021 34bd f5cc 543e
00000360: 20e0 a8bd 1992 5abe 6aee f93c caaa e0bd
00000370: 5785 883d f54b 4abe cc6e 29bd d1ef f33a
00000380: 82cb 3bbe 516c 1b3c 0c4d d4bd a491 533e
00000390: ed30 c03c f15a 753d ffce d8bd f3f2 bbbc
000003a0: c184 2f3e 4cc7 a4bd 0735 99bd 38cd 9ebb
000003b0: c761 c53c 9717 2cbd 4c2e 613d 7e3d 96bd
000003c0: b390 19bd 83ac 4bbe fca0 c6bd 5201 f4bd
000003d0: 846b ea3d 0d6e bf3d 92a4 76be c21c d7bd
000003e0: 3189 f8bd a6ac efbe 1838 db3d 1902 b63e
000003f0: b1e7 93bd 86b0 2fbe 38a3 86be b8c7 433d
0.07107742 -0.021291453 -0.014561597 -0.075647436 -0.072863355 0.006990367 -0.07849794 -0.04064903
-0.022080012 0.054253705 -0.0902864 -0.02753261 -0.09626348 0.06581588 0.004505934 -0.061888892
-0.060660228 -0.07739235 0.053594477 0.027345166 -0.0015735194 -0.0019884952 -0.08395997 -0.08573252
-0.015878113 -0.02496843 0.025701178 0.04762275 -0.0684043 -0.038237683 -0.10500559 0.011861609
-0.019078033 -0.035973627 -0.012942605 0.07063357 0.0427264 0.080158524 0.028603507 -0.07164495
-0.05001402 -0.078366615 -0.072583176 0.0070333676 0.06784865 -0.059441805 -0.11044506 -0.0006406392
-0.07237953 -0.068704665 0.028094605 -0.00721128 -0.16196513 -0.103135236 -0.029931415 -0.016487278
-0.00037517713 0.026828479 -0.016724546 -0.08751399 -0.0022261797 -0.08238108 -0.06184695 -0.08815113
0.014624954 -0.023213243 0.0040817214 -0.07582187 -0.006189888 -0.060060877 -0.03544416 -0.06554268
-0.058506865 -0.08742798 -0.10061835 0.08171434 0.021955479 -0.09557917 0.049716353 0.022168195
0.0550758 -0.0695646 -0.09432165 0.029081995 0.04610614 0.014763488 -0.0009435148 -0.027443212
-0.022266585 -0.07634922 -0.04309421 -0.08441068 0.001805412 -0.10111874 -0.01789378 -0.0168676
0.037464444 0.028413793 -0.10349915 -0.049301937 -0.032786947 -0.016697617 0.008208637 -0.0794399
-0.0014160553 -0.08866898 -0.019914033 0.046738397 -0.10454003 0.026307777 0.028564192 -0.0647995
-0.07620998 0.0066957786 0.014165787 -0.07175697 -0.044539146 -0.031529732 0.015912276 0.03739669
-0.038740754 -0.12480015 -0.07237786 -0.19636899 -0.07744664 -0.20364812 -0.1602964 -0.10525975
-0.06975393 -0.23554352 -0.13182181 -0.06106988 -0.2779188 -0.04596879 -0.0037884538 -0.0077693616
0.21789545 -0.15849467 -0.03192533 0.23823485 0.02766921 0.018267078 -0.029827904 0.14585009
-0.1482313 -0.108398326 -0.09193044 0.10087274 0.14200333 -0.080504246 -0.025275389 -0.16611645
0.07091296 0.06401444 -0.04230014 0.03497332 -0.09282203 0.20348188 -0.051432997 -0.061644472
-0.20170842 -0.061678726 -0.16952059 -0.079525895 0.05137124 0.18188597 0.10131664 -0.18730113
-0.05985098 0.011533916 -0.15064879 -0.036664855 0.069413625 0.0113306055 0.09376065 -0.08875759
0.04622447 -0.00013386318 0.079858 -0.07430915 -0.017897172 -0.143438 -0.056444917 -0.17412339
0.040902402 -0.06410077 0.002242911 -0.045965362 -0.22334276 0.025046777 0.07077565 -0.18419749
-0.0027716388 -0.17808431 0.085244626 0.29293895 -0.268548 0.07350897 0.049032148 -0.11285122
-0.20732713 -0.07695413 -0.025071027 -0.19786584 -0.18350731 -0.057803206 -0.2858417 -0.20179811
0.007027386 0.29793325 0.11315825 0.14698978 -0.014502805 0.11667516 -0.043976843 0.2078131
-0.082458735 -0.21344794 0.030509192 -0.109700754 0.066660576 -0.19755538 -0.04136543 0.00186109
-0.18339351 0.009486274 -0.10366258 0.20661026 0.02346083 0.05990118 -0.10586356 -0.022942996
0.17140485 -0.08045825 -0.07480817 -0.0048462413 0.024094475 -0.042014685 0.054975793 -0.073359475
-0.03749151 -0.19890027 -0.09698674 -0.11914314 0.11446288 0.093471624 -0.24086216 -0.10503532
-0.12135542 -0.46811408 0.107040584 0.35548475 -0.07221926 -0.17157182 -0.262964 0.04779789

fullyconnected2.bias f4 [84]
00000000: 7832 a8bd ad50 01bd 56b0 193d 2c95 04be
00000010: 2ab8 25be 15b3 8a3d 31f2 91be ab47 61bc
00000020: befc 733d 2278 fc3c cf8e 533d d356 1c3d
00000030: 31c9 f2bd 4f81 a43c 9650 063d 255d 2abe
00000040: 7f0e 85be cb98 5a3d b0d7 e2bd e1d3 46be
00000050: 1e9f a2be d960 e93c 9f21 673d d0c3 dabd
00000060: 93b0 4ebe 3b22 a4bb 8bc3 843c 26e3 e5bd
00000070: bd82 2abe 86e0 05be 13da 8c3d 688d 07be
00000080: 172a 0f3d 4a59 a2be e61a 4a3d 72bb 453d
00000090: 0d1e 913d 7b4c 0bbd ebe8 d6bd 83e5 8cbd
000000a0: 323a cebd 13b6 543d 1945 17be a17a 673d
000000b0: 5905 81bc 3283 97bd d7ea edbd b0dc 45bd
000000c0: 0fb2 6e3c 3bf0 383d 2e72 01bd 944d 1c3d
000000d0: f0a5 903d 9663 1e3d ff96 0abc a533 573d
000000e0: 3c6c d3bd ac3b 9d3c ee26 643d 0300 2ebe
000000f0: e411 8ebd ab28 9c3d 7b9d 3dbe d65d 9ebe
00000100: 243a 6c3d e955 14be 0fc0 3bbe 5f56 6dbe
00000110: 2514 82be 3630 a03d 5cc9 eebd 9c08 563d
00000120: e67a 86bc a879 0e3d 6bb7 8b3d 00ad 15be
00000130: 0170 803c ac81 08be a5a8 2abe d346 b2be
00000140: f4cd d9bd 8871 06be 7cd6 9cbe f87a aabc
-0.08212751 -0.03157108 0.037521683 -0.1294753 -0.16183534 0.067724384 -0.2850509 -0.013749997
0.059567206 0.030819003 0.051649865 0.03816874 -0.118547805 0.02008119 0.032791696 -0.16637094
-0.25987622 0.05336837 -0.110762954 -0.19416763 -0.31762022 0.028488563 0.056428548 -0.106818795
-0.20184545 -0.0050089634 0.016206523 -0.11224966 -0.16651435 -0.1307393 0.06877532 -0.13237536
0.03495225 -0.31708747 0.04934206 0.048274465 0.0708581 -0.034008484 -0.10493644 -0.068797134
-0.100696936 0.051931452 -0.14772452 0.056513432 -0.01574962 -0.073980704 -0.11617058 -0.048306167
0.01456882 0.045150977 -0.03160303 0.03815992 0.070629 0.03866919 -0.008458852 0.052539486
-0.103233784 0.019193493 0.05570119 -0.16992192 -0.06937006 0.07624944 -0.18517105 -0.30930966
0.057672635 -0.14485897 -0.18334983 -0.23177479 -0.25405994 0.078216955 -0.116595 0.052254304
-0.016416024 0.03478399 0.068220936 -0.14616776 0.015678408 -0.13330716 -0.16665895 -0.3481966
-0.106349856 -0.13129246 -0.3063239 -0.02081059

fullyconnected3.weight f4 [2, 84]
00000000: 15d8 953b 8720 4b3d 6a85 82be 8edf 80bb
00000010: 5603 843e 6893 afbd a193 b23d 58bc 10be
00000020: 61a6 923c 8464 503e f7f2 ecbd dd7f 12be
00000030: 6a1d 19bd 2d7c 5cbd 32ef d3bc 4af4 dc3c
00000040: 7e01 a7bc 4ed5 8a3d b306 be3d 6ce2 213e
00000050: fa7c 7f3d 440b c6bd ce3a 96bc 8cdf b83c
00000060: a3f4 ffbc 3036 093d 539c 6bbe f273 d93d
00000070: c8d7 2c3e 0f29 b6bd ee7f 25bd 2a41 cf3d
00000080: 6840 89be 5fd0 623b 9886 4b3d 2b7c 57be
00000090: 904c 29bc 0044 80bd 1cb8 fe3d cb97 2f3c
000000a0: fcff 353d 4c7b 08bd 6225 ee3d ad53 51be
000000b0: fb7a 65be d632 06bd f95a a73e dc7f 493e
000000c0: c7de 10be d1e1 14be 0193 e83c e321 07be
000000d0: 8270 debd 7472 763e e7be 1cbe a1e0 4bbe
000000e0: e6ee 223e 9973 a9bd 8985 56be 8610 6a3e
000000f0: 3147 c0bc 3d01 e3bd beb5 b5bb b686 433e
00000100: 3579 febd dfdf 8ebc de65 303e f6b9 afbd
00000110: 1fd0 0e3e 2d12 17be e7ff 643e e535 cfbd
00000120: 9ceb 97bd d5c9 48bd 0a62 aabd 0e83 253b
00000130: e94a 46bd 9963 91bc d7f8 0abd 837c 6d3c
00000140: 034d 993e e241 dc3e edb7 1a3d b029 73bd
00000150: def5 2b3b df8a 833d 3ac8 4a3e 5c8f 9b3b
00000160: 623d 45be b895 003d 7c5d 773d ab93 cb3d
00000170: 98ec 673d ae89 99be 5c82 453e 78b8 853c
00000180: 2e53 7e3c d0b1 c2bc d90a 1f3e cdc5 25be
00000190: 46a6 03be 196b f03d b075 bcbd 70f2 593d
000001a0: 6c78 80bd b468 1e3e 1922 993d 6e75 293c
000001b0: 6695 95bc a67b 573d ce06 5c3e 6eda 95be
000001c0: 8096 14be cdec fbbd f5c1 3f3e 76bf bf3d
000001d0: eb94 8b3e d8a7 d6bd 378b 083e 007a fc3d
000001e0: ee4d f33d 7900 2abd 378e 1fbe 35d5 10bc
000001f0: 61df e13c 81e8 753d 9ce6 adbd a866 a63e
00000200: a133 253e 8a4e 28bd 5f00 b0be ce31 6ebe
00000210: 299b 1d3e b5f0 aebc 7824 df3c 0664 2d3e
00000220: 0f6e 883d 2afe ccbd 31ca 3c3d 21a0 273d
00000230: 1a88 cebd e536 153b cee3 043e 5b39 58be
00000240: 6eff 1dbd 6e7e fe3d c11d b5bc b025 abbc
00000250: 899b c63d 946d 203c 5f51 8bbc 6ecc 0c3d
00000260: 733d 273d c28e 723e 825c 90be 3ba7 ce3d
00000270: 8fee 733c b4e1 a83c 75fa bc3c 6528 e53c
00000280: 40b6 493c c528 12be 70e6 863b 24fd 8cbd
00000290: 437f 8cbe 25bb c0be 8960 173d 36fb b53d
0.004572878 0.049591567 -0.25492412 -0.0039329 0.25783795 -0.085730374 0.08719564 -0.14134347
0.017901601 0.20350844 -0.11569779 -0.14306588 -0.037381567 -0.05382936 -0.025870893 0.026971955
-0.020386454 0.06778966 0.092786215 0.1580903 0.062375046 -0.096701175 -0.018338587 0.022567533
-0.031244582 0.033498943 -0.23008852 0.10617818 0.16879189 -0.0889455 -0.040405206 0.10119851
-0.2680695 0.0034609062 0.049688905 -0.2104346 -0.010333195 -0.0626297 0.1243746 0.010717343
0.04443358 -0.03332071 0.11628224 -0.20442076 -0.22410195 -0.032763325 0.32686594 0.1967768
-0.14147483 -0.14539267 0.02839041 -0.1319652 -0.10861303 0.24067098 -0.15307198 -0.19909908
0.15911445 -0.08274002 -0.20949377 0.22857866 -0.023471447 -0.110842206 -0.005545347 0.19094357
-0.12425462 -0.017440734 0.17226359 -0.08580391 0.1394658 -0.14753027 0.22363244 -0.101177014
-0.07417986 -0.049020607 -0.08319481 0.0025255117 -0.048411284 -0.017747687 -0.03392872 0.014495018
0.29941568 0.43019015 0.03777306 -0.05936593 0.0026239078 0.06422972 0.19802943 0.0047473144
-0.19261697 0.031392783 0.060391888 0.09940275 0.056622118 -0.29987854 0.1928801 0.016323313
0.015522761 -0.023766428 0.15531482 -0.16188736 -0.12856397 0.11739177 -0.092021346 0.053209722
-0.06272969 0.15469629 0.07477207 0.010342939 -0.018259715 0.052608155 0.21486971 -0.2926821
-0.14510536 -0.123010255 0.18726332 0.0936269 0.27262053 -0.104812324 0.13334356 0.12327957
0.11880098 -0.041504357 -0.15581594 -0.008839895 0.027572336 0.060036186 -0.08491251 0.32500196
0.16132976 -0.041090526 -0.34375283 -0.23261186 0.1539122 -0.021355012 0.02723907 0.16932687
0.06661617 -0.100094154 0.046091262 0.040924195 -0.10084553 0.0022768315 0.12977526 -0.2111563
-0.038573675 0.12426458 -0.022108914 -0.020891994 0.09697635 0.00979175 -0.017006574 0.034374647
0.040830087 0.2368727 -0.28195578 0.100904904 0.01488842 0.020615436 0.023068646 0.027973363
0.012311518 -0.14273365 0.0041168258 -0.0688422 -0.27440843 -0.3764278 0.036957297 0.08885805

fullyconnected3.bias f4 [2]
00000000: c6df 9ebe a68b 613e
-0.310301 0.22025928
